pk.onnx (onnx, 38399 bytes, 5 tensors)

sequential/dense_2/MatMul/ReadVariableOp:0 f4 [64, 1]
0	0x3e861814	0.26190245
1	0x3ee6e607	0.45097372
2	0x3ecdd57c	0.40201938
3	0xbf73f40b	-0.95294255
4	0xbf137a97	-0.5760893
5	0x3eb9005b	0.36133084
6	0xbf3f8a75	-0.74820644
7	0x3e8b7c8f	0.27243468
8	0x3f089e9c	0.5336702
9	0xbf110ab0	-0.5665693
10	0xbf54d968	-0.83144236
11	0xbe5c257b	-0.21498673
12	0x3e8c11c6	0.2735731
13	0xbf74fb95	-0.95696384
14	0xbcd48467	-0.02594204
15	0x3ecc3894	0.39886916
16	0x3e7a9b04	0.24473196
17	0xbec27aae	-0.37984222
18	0x3ec06cc4	0.37582982
19	0x3e97b3e5	0.29629436
20	0xbf6d7348	-0.9275403
21	0x3e875110	0.26429033
22	0xbf0720f2	-0.52784646
23	0x3f08928a	0.533486
24	0xbc70a154	-0.014686901
25	0x3ebe1df5	0.3713223
26	0x3f0b3efb	0.54392976
27	0xbf065296	-0.52469766
28	0xbf5f1349	-0.871388
29	0x3e9832b9	0.29726198
30	0xbf3df8a9	-0.7420755
31	0x3f021041	0.5080605
32	0xbed0c5b1	-0.40775827
33	0x3eafc69c	0.34331214
34	0x3eb46037	0.35229656
35	0x3eed0c22	0.4629832
36	0xbed89d4a	-0.42307502
37	0x3ef7934e	0.48354572
38	0x3ee640d0	0.44971323
39	0xbf53040b	-0.82428044
40	0x3e8255f1	0.25456193
41	0x3ebd4d82	0.36973196
42	0x3eed8068	0.4638703
43	0x3ef5ffbf	0.4804668
44	0x3efe6a8e	0.4969067
45	0xbf0e3f9b	-0.55565804
46	0xbf4f2c83	-0.80927294
47	0xbf6c77e1	-0.9237042
48	0xbc63ca79	-0.013903254
49	0xbcb78db1	-0.02240643
50	0x3ef08426	0.4697582
51	0x3eb560c9	0.35425404
52	0xbd891cc6	-0.06694941
53	0x3ecf0d32	0.40439755
54	0x3e90afdf	0.2825918
55	0xbe0c2e0e	-0.13689443
56	0x3f0bc0f6	0.5459131
57	0xbf6089c6	-0.87710226
58	0x3f00ea9f	0.50358003
59	0xbdc44674	-0.0958375
60	0x3ecbac5f	0.39779946
61	0xbf497b11	-0.7870341
62	0xbec72956	-0.38898724
63	0x3eb7f809	0.35931423

sequential/dense_1/MatMul/ReadVariableOp:0 f4 [128, 64]
0	0x3ed86dfb	0.42271408
1	0x3ed7d18c	0.4215206
2	0x3e8c1bf3	0.27365074
3	0x3e761fa5	0.24035509
4	0xbe195573	-0.14974003
5	0x3ee3d2f8	0.44496894
6	0x3e2b6a0d	0.16739674
7	0x3ef8e4fe	0.48612207
8	0x3e93dac4	0.28877842
9	0xbded4fd3	-0.11587491
10	0x3e1be0f1	0.15222527
11	0xbd68f107	-0.056870487
12	0x3ef5a10f	0.4797444
13	0x3db6c77d	0.08924768
14	0xbe0aea61	-0.13565971
15	0x3e91bd7c	0.28464878
16	0x3ea88717	0.32915565
17	0xbc6feb21	-0.014643461
18	0x3ecd9f99	0.40160826
19	0x3ef6012d	0.48047772
20	0x3ddba432	0.10724677
21	0x3e9d8613	0.30766353
22	0x3da92f4b	0.082609735
23	0x3ee3b6a8	0.44475293
24	0x3d2be98e	0.041970782
25	0x3ee3739d	0.44424143
26	0x3ea3a5d7	0.31962463
27	0xbe66d6c4	-0.22542864
28	0x3df2076b	0.11817821
29	0x3edd3aa3	0.432088
30	0xbd42dfc6	-0.04757669
31	0x3e67ed3e	0.22649094
32	0xbd3a1722	-0.045432217
33	0x3e4e284a	0.20132557
34	0x3e8d5254	0.27601874
35	0x3eb737d1	0.35784772
36	0xbe71eb7e	-0.2362499
37	0x3e7226a3	0.23647551
38	0x3ec8bdc7	0.3920729
39	0x3da4dc22	0.080497995
40	0x3e9993d9	0.2999561
41	0x3e87a7d9	0.26495245
42	0x3ea9b3c0	0.3314495
43	0x3eebd084	0.46057522
44	0x3ed5531d	0.41664973
45	0xbe5e25f5	-0.21694167
46	0xbd47aea2	-0.048750527
47	0x3d08671b	0.033301454
48	0xbd258056	-0.040405594
49	0xbdf61fef	-0.120178096
50	0x3e6356bd	0.22201057
51	0x3e82b38b	0.25527605
52	0xbd9c2788	-0.076247275
53	0x3ec8d4b7	0.3922479
54	0x3f06ee3b	0.5270726
55	0x3dece737	0.11567538
56	0x3ec68893	0.38776073
57	0x3c53e8f0	0.012933955
58	0x3ea61c16	0.32443303
59	0x3d69bd19	0.057065103
60	0x3ef75cd8	0.48313022
61	0xbd50aee4	-0.05094804
62	0xbe55d373	-0.20881443
63	0x3eac50fa	0.3365553
64	0x3dc34e5c	0.0953643
65	0x3e32efe9	0.17474331
66	0x3d7d2053	0.061798405
67	0xbb5ab3be	-0.0033371295
68	0x3ded66ff	0.115919106
69	0x3ec53d44	0.38523304
70	0xbc009362	-0.007847639
71	0x3e88891f	0.26667115
72	0x3e4bcdb4	0.19902688
73	0xbca27f3d	-0.019836063
74	0x3dda9b27	0.10674124
75	0x3ce805e0	0.028323114
76	0x3d97b6d7	0.07407921
77	0x3de3b7c9	0.111190386
78	0xbdc6a1ba	-0.09698816
79	0x3d350893	0.04419763
80	0x3e263b62	0.1623359
81	0x3e2c4462	0.16822961
82	0x3e92f6d2	0.28703934
83	0x3e738264	0.23780209
84	0x3e3db633	0.18526535
85	0x3e952289	0.2912791
86	0xbd7898ae	-0.06069248
87	0x3ead0cb1	0.33798745
88	0xbe0ea9ae	-0.13931915
89	0x3e6e872b	0.2329375
90	0x3eb6d61f	0.35710236
91	0x3dc02ab0	0.09383142
92	0x3e54ea74	0.20792562
93	0x3dac50cc	0.08413848
94	0x3acf0478	0.0015794178
95	0x3df75a84	0.12077811
96	0x3e46ef44	0.1942721
97	0x3eb2e964	0.34943688
98	0x3e8ba760	0.27276134
99	0x3e63baa7	0.22239171
100	0x3e0e2f4c	0.1388523
101	0x3d961a93	0.073292874
102	0x3e878d27	0.26474878
103	0x3dc0890a	0.09401138
104	0x3e87677e	0.26446146
105	0x3dce2f93	0.10067668
106	0x3e01a6a1	0.1266122
107	0x3ea2f445	0.31826988
108	0x3e84780f	0.25872847
109	0xbddd6ae8	-0.108114064
110	0x3d9d522b	0.07681688
111	0x3d9f05b8	0.07764763
112	0xbe4e8c16	-0.20170626
113	0x3d8b5f32	0.068052664
114	0x3ec0bff0	0.37646437
115	0x3e6ea812	0.23306301
116	0x3d4f5afd	0.050623883
117	0x3e54536d	0.2073495
118	0x3e9a2680	0.30107498
119	0xbe1271db	-0.14301245
120	0x3e87fdfe	0.26560968
121	0x3d73b886	0.059502147
122	0x3d0750eb	0.033036154
123	0x3d9bbac0	0.07603979
124	0x3dfc2fe7	0.12313824
125	0xbdf4eeec	-0.11959633
126	0x3e45cabf	0.19315623
127	0x3eac08aa	0.3360036
128	0xbeb62466	-0.35574645
129	0xbebc40b9	-0.3676813
130	0xbe9bf4bb	-0.30460152
131	0x3ebd9b0a	0.37032348
132	0x3e1c53f6	0.15266404
133	0xbec46fb0	-0.3836646
134	0x3f0b26d5	0.5435613
135	0xbdf6c90f	-0.12050068
136	0xbeb4a2b3	-0.3528038
137	0x3e997a72	0.2997623
138	0x3e84fd57	0.25974533
139	0xbb9f844c	-0.004868066
140	0xbeb913a4	-0.36147797
141	0x3f0c0e23	0.5470907
142	0x3d071da7	0.032987263
143	0xbe3e69d0	-0.18595052
144	0xbeb80bb1	-0.3594642
145	0x3e3340cc	0.17505187
146	0xbe52b7a1	-0.20577861
147	0xbeb631f0	-0.35584974
148	0x3e923091	0.28552678
149	0xbe88d42b	-0.2672437
150	0x3ec4e048	0.38452363
151	0xbecdfe14	-0.4023291
152	0x3e08aeb5	0.13347895
153	0xbe879943	-0.26484117
154	0xbe155fea	-0.1458737
155	0x3e9d7bd5	0.3075854
156	0x3f2b06fe	0.66807544
157	0xbe92ea5f	-0.28694436
158	0x3ed370af	0.41296908
159	0xbe1d1a12	-0.15341976
160	0x3ea9a3f8	0.3313291
161	0xbec12e5b	-0.3773068
162	0xbeba0d52	-0.36338288
163	0xbeb00d54	-0.3438517
164	0x3e4da3aa	0.20081964
165	0xbea964b9	-0.33084658
166	0xbe9166e8	-0.28398824
167	0x3ee7ad1e	0.45249265
168	0xbea2a348	-0.317652
169	0xbea45b5d	-0.32100955
170	0xbe4b598f	-0.19858383
171	0xbe7a40e8	-0.24438822
172	0xbe915730	-0.2838683
173	0x3ea93c02	0.33053595
174	0x3ef162ca	0.47145683
175	0x3eab6597	0.33475944
176	0x3e125a83	0.1429234
177	0x3d6182c5	0.055056352
178	0xbe8ad096	-0.27112263
179	0xbe635960	-0.22202063
180	0xbd94b195	-0.072604336
181	0xbe88da96	-0.26729268
182	0xbdff983a	-0.12480207
183	0xbe0d2414	-0.13783294
184	0xbeafcbfc	-0.34335315
185	0x3f07dd50	0.5307207
186	0xbe5ce336	-0.21571049
187	0xbdd8c670	-0.10584724
188	0xbe142c88	-0.14470112
189	0x3f1629df	0.5865764
190	0x3efaa226	0.48951834
191	0xbebd4bc2	-0.3697186
192	0x3ed1acfe	0.40952295
193	0x3e320807	0.17385875
194	0x3e794a9d	0.24344869
195	0xbe8c9165	-0.27454677
196	0xbe54aab1	-0.20768239
197	0x3e094a2b	0.13407199
198	0xbde4339e	-0.11142658
199	0x3daa0fc3	0.083037876
200	0x3e5f0588	0.21779454
201	0x3d4b95fb	0.04970358
202	0xbec95dee	-0.39329475
203	0x3e0aa32d	0.13538809
204	0x3e82f6e8	0.25579
205	0xbe0be9a9	-0.13663353
206	0xbdcd35d7	-0.10020035
207	0x3dcbfd19	0.09960384
208	0x3dfd5aef	0.1237086
209	0xbe420ef4	-0.18951017
210	0x3eadcd26	0.33945578
211	0x3e7506a3	0.23928313
212	0xbdbbca6e	-0.0916947
213	0x3e885127	0.26624414
214	0xbe21a269	-0.15784611
215	0x3ebbec10	0.3670354
216	0xbc00a8bb	-0.0078527285
217	0x3ea78f7e	0.32726663
218	0x3e8451e3	0.25843725
219	0x3dac7d73	0.08422365
220	0xbebfda46	-0.37471217
221	0x3e68452b	0.22682635
222	0xbecb1656	-0.39665478
223	0x3e5e2f56	0.21697745
224	0x3d474e92	0.048658915
225	0x3e3efba0	0.18650675
226	0x3e507b18	0.20359457
227	0x3e7acb90	0.24491715
228	0x3d2ba881	0.041908745
229	0x3e642b08	0.2228204
230	0x3e834390	0.25637484
231	0xbeac3d79	-0.3364065
232	0x3df2e08a	0.11859234
233	0x3e68f943	0.22751336
234	0x3e948650	0.29008722
235	0x3e29cd17	0.16582142
236	0x3eaf271d	0.3420953
237	0x3d0016df	0.03127181
238	0xbed196f4	-0.4093548
239	0xbe2ec023	-0.17065482
240	0x3d0d300d	0.034469653
241	0x3de3689f	0.11103939
242	0x3d2a1e12	0.041532584
243	0x3ec646d1	0.38725904
244	0xbe0b303a	-0.13592616
245	0x3eaf54f0	0.3424449
246	0x3ebff3b9	0.37490633
247	0x3d8bbf5c	0.06823608
248	0x3ead70bc	0.33875072
249	0xbebedfd7	-0.3728015
250	0x3d13e042	0.03610254
251	0x3d547484	0.05186893
252	0x3df358dc	0.11882183
253	0xbdf332c4	-0.11874917
254	0xbe3c9f06	-0.18420038
255	0x3e9ae44d	0.30252305

sequential/dense_1/BiasAdd/ReadVariableOp:0 f4 [64]
0	0x3e95aaa5	0.29231754
1	0x3e55de39	0.20885552
2	0x3e826260	0.2546568
3	0x3e8edee1	0.27904418
4	0xbdd20a12	-0.10255827
5	0x3e79979d	0.24374242
6	0x3ebca8eb	0.36847624
7	0x3e8d0807	0.27545187
8	0x3e4e5d41	0.20152761
9	0xbde65434	-0.11246529
10	0x3e6e3bb2	0.2326496
11	0xbcc475c8	-0.023981944
12	0x3e8fcb2f	0.28084704
13	0x3e9eb5be	0.30998033
14	0xbcac2e22	-0.021018092
15	0x3e623470	0.22090316
16	0x3e87b4d3	0.26505145
17	0x3acd11c2	0.0015645551
18	0x3e8636dc	0.2621373
19	0x3e85b111	0.26111653
20	0x3ddfc435	0.109260954
21	0x3e941e90	0.28929567
22	0xbd97fca5	-0.07421235
23	0x3e5eda2a	0.2176291
24	0xbd12572e	-0.035727672
25	0x3e677576	0.22603402
26	0x3e47d847	0.19516097
27	0xbddd9287	-0.108189635
28	0x3ec00074	0.37500346
29	0x3e87b885	0.26507965
30	0x3e9949d6	0.29939145
31	0x3e5bf241	0.21479131
32	0xbd314535	-0.04327889
33	0x3e740675	0.23830588
34	0x3e683625	0.22676904
35	0x3e6cb81c	0.23117107
36	0xbe2b8826	-0.16751155
37	0x3e54550f	0.20735572
38	0x3e573567	0.21016465
39	0x3eae4d3e	0.34043306
40	0x3e8da7eb	0.27667174
41	0x3e73d003	0.23809819
42	0x3e5b9cc5	0.21446522
43	0x3e6ef7bf	0.23336695
44	0x3e4a96e2	0.1978412
45	0xbd8a2dfc	-0.06747052
46	0x3ecc1514	0.3985983
47	0x3eacfa2c	0.33784616
48	0xbd1c0bcf	-0.0380972
49	0xbd078dcd	-0.033094216
50	0x3e74793f	0.23874377
51	0x3e72e216	0.23719057
52	0xbce79326	-0.028268408
53	0x3e7df286	0.24799547
54	0x3e880441	0.26565745
55	0xbcac7468	-0.0210516
56	0x3e4bee37	0.1991509
57	0x3e467c93	0.19383459
58	0x3e4a48b2	0.19754294
59	0xbcc78bac	-0.024358593
60	0x3e5c5ab7	0.2151898
61	0x3eb503a3	0.35354337
62	0xbe1e2b5d	-0.1544623
63	0x3e68c6d3	0.22732095

sequential/dense/MatMul/ReadVariableOp:0 f4 [6, 128]
0	0xbddbe89f	-0.10737728
1	0xbe4b7f7a	-0.19872847
2	0x3eedd7a5	0.46453586
3	0xbed17203	-0.40907297
4	0xbdf242e5	-0.11829165
5	0xbe77cf93	-0.24200277
6	0xbe58df74	-0.2117899
7	0x3ad2f33c	0.0016094218
8	0x3e01a167	0.12659226
9	0x3ea1df13	0.31615505
10	0xbe7390f8	-0.2378577
11	0xbe5a1234	-0.21296006
12	0xbe0f29d7	-0.13980804
13	0x3d7e0904	0.062020317
14	0xbe150cd6	-0.14555678
15	0xbce85966	-0.028362941
16	0x3e9e8798	0.30962825
17	0xbe66947a	-0.22517577
18	0xbe89d958	-0.26923633
19	0xbeb70946	-0.35749263
20	0x3eb96ff1	0.36218217
21	0xbed4c895	-0.41559282
22	0xbec3f1cd	-0.38270417
23	0xbeadaf84	-0.3392297
24	0xbebca668	-0.36845708
25	0xbece883f	-0.40338323
26	0xbec922f1	-0.3928447
27	0xbe8d4522	-0.27591807
28	0xbe459f06	-0.19298944
29	0xbd7a9682	-0.06117869
30	0xbea7dc0f	-0.3278508
31	0xbe95a265	-0.2922546
32	0xbe94ba1a	-0.29048234
33	0xbe9be36c	-0.30446947
34	0xbea9e068	-0.3317902
35	0xbe470396	-0.19434962
36	0xbeaecbce	-0.34139866
37	0xbda8c34d	-0.08240376
38	0xbe66a435	-0.22523578
39	0xbe37f0f2	-0.17963007
40	0x3dcb35dc	0.09922382
41	0x3eccfef9	0.4003828
42	0xbe05f6c3	-0.13082413
43	0xbea6342f	-0.32461688
44	0xbeb0c227	-0.34523126
45	0xbeb142ab	-0.34621176
46	0xbe00b08c	-0.12567347
47	0xbe68af1c	-0.22723049
48	0xbee050fe	-0.43811792
49	0xbe82f336	-0.2557618
50	0x3e2ad080	0.16681099
51	0xbee47111	-0.44617513
52	0xbec3a624	-0.38212693
53	0xbd901454	-0.07035127
54	0xbebc29aa	-0.36750537
55	0x3e7c3b09	0.24631895
56	0xbed42dec	-0.41441286
57	0xbe367991	-0.17819811
58	0xbe232609	-0.15932478
59	0xbea773fe	-0.32705683
60	0xbeca4be2	-0.3951102
61	0xbebb4102	-0.36573035
62	0x3d0be056	0.03414949
63	0xbd927f26	-0.07153158
64	0xbeaf5861	-0.34247115
65	0xbdd7240a	-0.10504921
66	0x3dbf949c	0.09354517
67	0xbea7e1cd	-0.3278946
68	0x3e58c8ef	0.211704
69	0xbe3e7af2	-0.18601587
70	0xbedef1de	-0.43543905
71	0xbe45f10c	-0.19330233
72	0x3dd9d461	0.10636211
73	0xbeca0a8b	-0.3946117
74	0xbeacf815	-0.33783022
75	0xbec316f8	-0.3810346
76	0xbb58d696	-0.0033086888
77	0xbdb7c613	-0.089733265
78	0xbed1929e	-0.40932173
79	0xbecbca09	-0.39802578
80	0xbe1a3fae	-0.15063354
81	0x3da015ba	0.07816644
82	0xbd872d93	-0.066004895
83	0xbc517b71	-0.012785778
84	0x3db91f52	0.09039177
85	0xbea732ea	-0.32656032
86	0xbe77fe39	-0.24218072
87	0x3e9e053a	0.30863363
88	0xbd1c91f1	-0.038225118
89	0xbe329428	-0.1743933
90	0xbece6385	-0.40310302
91	0x3dae1f4d	0.08502064
92	0xbe9eff71	-0.3105426
93	0xbe7be2a9	-0.24598183
94	0xbdf757c8	-0.1207729
95	0xbe8869e2	-0.26643282
96	0x3d5849ba	0.052804686
97	0xbebfa24e	-0.37428516
98	0x3d87d107	0.06631666
99	0xbe37250e	-0.17885229
100	0xbe4fdabf	-0.20298289
101	0xbd2fc0f1	-0.042908613
102	0xbe07e74a	-0.13271824
103	0x3d489ea7	0.048979428
104	0xbea7bfb3	-0.32763442
105	0x3ce56834	0.02800379
106	0xbeb89825	-0.36053577
107	0xbf0e84f5	-0.55671626
108	0xbd0f2b65	-0.034953494
109	0x3e0f2437	0.13978659
110	0xbec9253f	-0.3928623
111	0xbe7e69f4	-0.24845105
112	0x3b39c19e	0.0028344165
113	0xbe846683	-0.2585946
114	0xbe775216	-0.24152407
115	0xbe49cbe9	-0.19706692
116	0xbd976d3b	-0.07393881
117	0xbed0825a	-0.4072445
118	0xbcc236fc	-0.02370786
119	0xbec1d7eb	-0.37860045
120	0xbe11fbe5	-0.14256246
121	0xbe40b040	-0.18817234
122	0x3e83a179	0.2570913
123	0x3e528bd6	0.20561156
124	0xbf0341d3	-0.51272315
125	0xbe5b8630	-0.21437907
126	0xbec97b30	-0.39351797
127	0xbba239cd	-0.004950738
128	0xbe187e14	-0.14891845
129	0x3e7ec79b	0.24880831
130	0xbeab3eba	-0.33446294
131	0x3e35e09a	0.1776146
132	0x3e898280	0.26857376
133	0x3dfe2c65	0.12410811
134	0x3e24ee49	0.16106524
135	0x3e6bc9af	0.23026155
136	0x3cf0e1bb	0.029404512
137	0x3db533b6	0.08847754
138	0xbda76877	-0.08174222
139	0x3f07d9e8	0.53066874
140	0x3da399f1	0.07988346
141	0x3e9208de	0.2852239
142	0x3d77cda2	0.06049884
143	0x3e8fcd2f	0.2808623
144	0x3f052949	0.5201612
145	0x3e42bb35	0.19016726
146	0xbda82843	-0.08210804
147	0x3e303f93	0.17211752
148	0xbdc18998	-0.09450072
149	0x3c0ce2bd	0.0085989805
150	0xbd2c25e6	-0.04202833
151	0x3e912224	0.2834636
152	0x3d23c07f	0.0399785
153	0x3e94daed	0.29073277
154	0x3e817325	0.2528316
155	0x3e89d7fc	0.26922596
156	0x3eb11c0c	0.3459171
157	0x3d8bec23	0.06832149
158	0x3dbb60f4	0.09149352
159	0x3e99ce8e	0.300404
160	0xbc3ae21c	-0.011406448
161	0xbda8c514	-0.08240715
162	0x3ea8299c	0.32844245
163	0xbebe4e0f	-0.3716893
164	0x3ce3b53f	0.027796386
165	0x3e37a6ae	0.17934677
166	0x3e0afeee	0.1357381
167	0x3e1b8a88	0.15189564
168	0x3e4571e7	0.19281732
169	0xbdc75ef4	-0.09734908
170	0x3dab2749	0.083571024
171	0xbd7a37c8	-0.061088353
172	0xbc227199	-0.009914779
173	0x3e30c0ea	0.17261091
174	0x3e13c5d2	0.14430931
175	0xbde2f50c	-0.11081895
176	0x3e90e26c	0.28297746
177	0x3e91f3cc	0.28506315
178	0x3db3cdbb	0.08779474
179	0x3e210d28	0.15727675
180	0x3e995907	0.29950735
181	0x3e33da07	0.1756364
182	0x3dfacd5e	0.12246202
183	0x3c95808e	0.018249776
184	0x3eb95f56	0.36205548
185	0x3e466988	0.19376194
186	0x3ea3b69e	0.31975263
187	0x3e64ae87	0.22332202
188	0x3e01ae2b	0.12664096
189	0x3e409ca7	0.18809758
190	0x3bfd270a	0.007725601
191	0x3d01cd81	0.031690124
192	0x3e6b8d02	0.23003009
193	0xbe846ad8	-0.25862765
194	0xbd7cd84a	-0.061729707
195	0x3de3cee4	0.11123446
196	0x3e353196	0.17694697
197	0x3d4ac992	0.04950864
198	0xbee6bd8f	-0.45066497
199	0x3ea2ecc8	0.31821275
200	0xbd384cfa	-0.044995286
201	0x3eb15d7a	0.3464163
202	0x3dc91d54	0.09820047
203	0x3e126466	0.14296111
204	0xbce73d7b	-0.028227558
205	0x3cac8743	0.021060592
206	0x3e4ab401	0.19795229
207	0x3e278fd5	0.16363461
208	0xbe002550	-0.12514234
209	0x3e592089	0.21203817
210	0x3dbdb773	0.09263506
211	0x3d547f20	0.05187905
212	0x3e8f0ccd	0.27939454
213	0x3d450201	0.048097614
214	0x3e1df845	0.15426739
215	0x3da98555	0.08277384
216	0x3e35764f	0.17720912
217	0x3d4cfc47	0.050045278
218	0x3deb5ad5	0.11491934
219	0x3cbb7b29	0.022885876
220	0x3e2ec876	0.17068657
221	0x3e8bab8e	0.27279323
222	0x3e2c18e7	0.16806374
223	0x3e528169	0.20557179
224	0x3dce3eef	0.100705974
225	0x3e8b36f4	0.27190363
226	0xbe30f181	-0.17279626
227	0x3e840c31	0.2579055
228	0x3e47c2a2	0.1950784
229	0x3e991ce0	0.29904842
230	0x3ea86c72	0.32895237
231	0x3dc85208	0.09781271
232	0x3e10a61a	0.14125863
233	0x3e7988fd	0.24368663
234	0x3d9c99dd	0.076465346
235	0xbf1d776e	-0.6151036
236	0x3eaa3b32	0.33248287
237	0x3e1e82aa	0.15479532
238	0xbe285f46	-0.16442594
239	0x3e859172	0.26087528
240	0x3df08f3e	0.11746071
241	0x3e9efed0	0.31053782
242	0x3e06e2b4	0.13172418
243	0xbbf0a870	-0.007344298
244	0x3ea42459	0.3205898
245	0x3e002939	0.12515725
246	0x3e114547	0.14186583
247	0x3eb1a688	0.34697366
248	0x3e60f4e0	0.21968412
249	0xbe69268b	-0.22768609
250	0xbd40185c	-0.04689823
251	0x3df37a36	0.11888544
252	0xbefaa402	-0.48953253
253	0x3e6085e5	0.21926077
254	0x3e4e40b6	0.20141873
255	0x3d64ecfd	0.055890072

sequential/dense/BiasAdd/ReadVariableOp:0 f4 [128]
0	0x3ead6e94	0.33873427
1	0x3eb3a4c8	0.35086656
2	0x3e3146ef	0.17312215
3	0x3e652f8c	0.22381419
4	0x3ea3f1a5	0.32020298
5	0x3e5b20a2	0.21399167
6	0x3e59fbf0	0.21287513
7	0x3ea7f3cc	0.3280319
8	0x3e92cab2	0.2867027
9	0x3e38acfe	0.18034741
10	0x3ed7ffd1	0.4218736
11	0x3dfb8ea4	0.12283066
12	0x3ea9ac0a	0.33139068
13	0x3ec95291	0.39320806
14	0x3f0c2632	0.5474578
15	0x3ea2a48b	0.3176616
16	0x3b08984e	0.0020842734
17	0x3e91eccf	0.28500983
18	0x3eab3625	0.33439746
19	0x3e9b2eb8	0.3030908
20	0x3ea0c82b	0.31402716
21	0x3e6ff054	0.23431522
22	0x3edad109	0.42737606
23	0x3e9a0cb2	0.3008781
24	0x3f07ef12	0.5309917
25	0x3e6e4e33	0.23272018
26	0x3e543f17	0.20727192
27	0x3e59c5d6	0.21266875
28	0x3e4c6016	0.19958529
29	0x3eabdec6	0.335684
30	0x3e85766d	0.26066914
31	0x3e6554b0	0.22395587
32	0x3f09260c	0.5357368
33	0x3ea36609	0.31913784
34	0x3e698eb9	0.2280835
35	0x3f1f254e	0.621663
36	0x3ea7851a	0.32718736
37	0x3ebdda05	0.37080398
38	0x3e811bc6	0.25216502
39	0x3e8e1eb5	0.27757803
40	0x3e869876	0.26288193
41	0x3e85d62f	0.26139972
42	0x3eb81fd4	0.35961783
43	0x3f0bd033	0.5461456
44	0x3f0420be	0.5161246
45	0x3e8be949	0.2732642
46	0x3ed12a3d	0.40852538
47	0x3ec8f9b4	0.39253008
48	0x3e0d7990	0.13815904
49	0x3e7fc3dc	0.24977058
50	0x3e8a0ec0	0.26964378
51	0x3e4f5aee	0.2024953
52	0x3e86b73c	0.26311672
53	0x3e93b8f8	0.28852057
54	0x3e83b310	0.2572255
55	0x3e81ae57	0.25328323
56	0x3e6e128f	0.23249267
57	0x3ef1c581	0.47220996
58	0x3e8a1194	0.26966536
59	0x3eb7c81d	0.35894862
60	0x3e861783	0.26189813
61	0x3e617f5d	0.22021241
62	0x3eb76e0f	0.35826156
63	0x3ed49c94	0.4152571
64	0x3e23bd36	0.15990147
65	0x3f0ada70	0.5423956
66	0x3ed7a7e7	0.42120287
67	0x3eb2f162	0.34949785
68	0x3d27529e	0.040850274
69	0x3edcc558	0.4311931
70	0x3eeb4eb8	0.45958495
71	0x3e93f712	0.28899437
72	0x3ea5a6d7	0.3235385
73	0x3e7d5558	0.24739587
74	0x3e55f7e7	0.20895348
75	0x3e3a25f5	0.18178542
76	0x3ed0af59	0.4075878
77	0x3eb3675b	0.3503979
78	0x3e83ad5c	0.257182
79	0x3e0d8edb	0.13824026
80	0x3ed39fbd	0.41332808
81	0x3ec6344b	0.3871177
82	0x3eafb02a	0.3431409
83	0x3eb207ca	0.34771568
84	0x3ea1631a	0.3152092
85	0x3ecc26ed	0.39873448
86	0x3e545705	0.2073632
87	0x3e997476	0.29971665
88	0x3ec606a4	0.3867694
89	0x3eb83bd1	0.35983136
90	0x3e23af20	0.15984774
91	0x3ec1f3c4	0.3788129
92	0x3ebd31db	0.369521
93	0x3e7f6636	0.24941334
94	0x3e7ab1a3	0.24481826
95	0x3ec66f79	0.38756922
96	0x3e1bb0e3	0.15204196
97	0x3e210b40	0.15726948
98	0x3eec7ccc	0.46188962
99	0x3e8ffc3c	0.28122127
100	0x3e9f9674	0.31169474
101	0x3eae3ea7	0.34032175
102	0x3ea47ee4	0.3212806
103	0x3e9e1182	0.30872732
104	0x3e92c6d6	0.28667325
105	0x3ec16554	0.3777262
106	0x3ed9f7d9	0.42571905
107	0x3ebaeb8e	0.3650784
108	0x3ea1dad1	0.31612256
109	0x3ee0d810	0.43914843
110	0x3e961207	0.2931063
111	0x3ec51337	0.38491222
112	0x3ec652ec	0.3873514
113	0x3e82fc72	0.25583225
114	0x3ea1fb60	0.31637096
115	0x3ef07a2c	0.4696821
116	0x3e94a4c3	0.29031953
117	0x3e480a09	0.19535078
118	0x3eb6e6ea	0.35723048
119	0x3e88805e	0.26660436
120	0x3e976b18	0.29573894
121	0x3f006222	0.5014974
122	0x3e68c81a	0.22732583
123	0x3e8f9341	0.28042033
124	0x3e992e34	0.29918063
125	0x3e858c2c	0.26083505
126	0x3e875298	0.26430202
127	0x3eaa0c8f	0.33212706
