pk_wrapped.onnx (onnx, 38399 bytes, 5 tensors)

sequential/dense_2/MatMul/ReadVariableOp:0 f4 [64, 1]
000000 8f 27 11 bf d7 05 af 3e 6c 04 c8 3e 87 6a 00 bf
       -0.56700987 0.34184143 0.39065874 -0.5016255
000010 9a cb 65 bf 1c c2 2a be ba 32 27 bf 8c 96 c3 bd
       -0.89763796 -0.1667561 -0.6531178 -0.09550199
000020 6e 18 0e 3f 5b f8 23 bf 28 d6 3e bf 60 00 1c bf
       0.55506027 -0.64050835 -0.74545527 -0.6093807
000030 7d 07 16 bd 57 f5 41 bf 93 af 07 3f 1c ca b4 3e
       -0.036628235 -0.75764984 0.5300228 0.35310447
000040 37 70 c0 3e 8c 36 ca bd 84 7f 8e bb 67 c5 02 3f
       0.37585613 -0.09873685 -0.004348697 0.5108246
000050 3e 27 94 be 10 81 d2 3e e2 9c 07 3f 77 c5 af be
       -0.2893619 0.41114092 0.5297376 -0.3433034
000060 a1 34 7d bf 44 f5 88 be d4 a4 27 bf e8 e5 af 3e
       -0.9890843 -0.26749623 -0.6548588 0.34355092
000070 a9 28 f9 be 7c 24 0e be 12 96 b7 3e f0 5c 58 bf
       -0.48663834 -0.13881105 0.35856682 -0.8451681
000080 71 9c 0d 3f 13 2c 57 bf 41 12 d2 3e b7 7e 9a 3e
       0.55316836 -0.84051627 0.41029552 0.301748
000090 95 ee 80 be 50 db 7b bf 92 8c d1 be 48 08 38 3b
       -0.25182024 -0.9838152 -0.4092756 0.0028081108
0000a0 5d 19 dc 3e 6f 15 7e be 00 d2 0a 3f 1e 5d 9d 3e
       0.429881 -0.24812864 0.54226685 0.30735105
0000b0 30 cb 73 be 39 fc 73 be ef 86 92 3e ae fa fe 3e
       -0.23807979 -0.23826684 0.2861857 0.49800628
0000c0 43 b9 59 bf 01 3c ea 3e e3 ed 52 bf cf 7c 0f 3f
       -0.8504831 0.45748904 -0.82394236 0.5604982
0000d0 25 33 6a bb 4d db bc 3e e4 38 07 3f e5 94 5d bf
       -0.003573605 0.36886063 0.52821183 -0.8655532
0000e0 5f 17 4e bf 48 3e 04 bf ce db ad 3e c4 59 a3 bd
       -0.8050441 -0.51657534 0.3395676 -0.07976106
0000f0 f1 e2 a1 3e 24 d1 da 3e 4a 3d b3 3e 11 b9 09 3f
       0.31618455 0.42737687 0.35007697 0.53798014

sequential/dense_1/MatMul/ReadVariableOp:0 f4 [128, 64]
000000 2f 05 d4 3d e6 8c 50 be 55 b3 7e be 18 90 86 3e
       0.10352551 -0.20366248 -0.24873097 0.2628181
000010 5b 77 b2 3e 00 ab 82 bd 3f 06 ec 3e b2 bf e4 3c
       0.34856686 -0.06380272 0.46098515 0.027923439
000020 2f 5a 11 be de 19 04 3e 1f fc 1a 3f 79 bf 84 3e
       -0.14194559 0.12900493 0.60540956 0.25927332
000030 55 07 d1 bc 24 b9 f9 3e a4 7f 89 be b4 85 a4 be
       -0.025516191 0.48774064 -0.26855195 -0.32133257
000040 18 b3 b6 bd 22 8a cc ba 3e 61 0e 3e 4b 4b db bc
       -0.08920878 -0.0015605132 0.13904282 -0.0267693
000050 3e 00 b8 3d 98 fa 8d be 9a 9d 8e be 60 13 37 3e
       0.08984421 -0.2773025 -0.27854615 0.17878485
000060 51 e1 b6 3e da 8a 53 bd e3 32 2e 3e 0e 4d f3 bd
       0.35718778 -0.05164609 0.17011599 -0.118799314
000070 05 83 69 3e 98 f7 c7 3d ff 7b 86 bd 67 06 9b 3e
       0.22803886 0.09764022 -0.06566619 0.30278322
000080 37 20 9f be ff 34 dc 3e 5a 83 93 be c9 21 d5 bc
       -0.31079265 0.43009183 -0.2881115 -0.026017087
000090 08 94 ba bd 7e df cd 3e 3e 3b 18 3e 1e a6 e7 3d
       -0.09110266 0.40209574 0.14866349 0.11310981
0000a0 d4 2f b4 be 0a 99 48 be e4 40 af bd 05 b0 94 bd
       -0.3519274 -0.1958963 -0.08557299 -0.072601356
0000b0 26 75 60 bc 56 90 a8 bd 29 3c 8e be ef 43 45 be
       -0.013699805 -0.08230655 -0.27780274 -0.19264196
0000c0 b6 3b 0b 3f 85 cc 2f be 3e cc 9e 3e 27 ce 91 be
       0.54387987 -0.17167862 0.310152 -0.28477594
0000d0 8e f8 56 bc eb 4c 17 be ae 77 9b be 7f ee 8f 3e
       -0.0131207835 -0.14775436 -0.30364746 0.28111646
0000e0 5b 54 a9 3e 32 02 8b 3e 93 3a ac be 09 8c 31 3c
       0.3307217 0.27150112 -0.3363844 0.01083661
0000f0 12 ab 51 be a1 f4 1d be b8 4f 99 bd 7e a8 63 be
       -0.20475414 -0.1542535 -0.07485908 -0.22232243
000100 40 94 a0 3c 7d 46 17 3e 66 f3 c1 3e 28 c9 26 3e
       0.019601941 0.14772983 0.3788101 0.16287673
000110 27 3b 4e 3d d5 ec a3 3d fc 00 53 3d a1 03 35 be
       0.05034938 0.080041565 0.05151461 -0.17677166
000120 40 d7 22 3e 77 3d 99 bc 66 7d 81 be e7 5e fd 3d
       0.15902424 -0.018706067 -0.25290984 0.12371617
000130 4c bd 9d bd f0 cc e5 bd e5 97 9d 3e b3 a4 88 3d
       -0.07702121 -0.11220729 0.3077995 0.06672039
000140 c4 c0 ab 3d d4 47 09 3d 5e cc 00 be 9b d4 89 3d
       0.083863765 0.033515766 -0.1257796 0.067300044
000150 03 fa 55 3d 58 a7 06 3e a7 65 b7 3d d2 fd d7 bd
       0.052240383 0.13149774 0.089549355 -0.10546459
000160 c9 00 73 3d f4 9b 08 3c 43 e7 61 3d a3 6a 08 3e
       0.05932692 0.008337963 0.05515219 0.13321929
000170 d2 7e b6 bd ac c4 9b 3d f0 4a c3 3e 46 f0 3b be
       -0.08910908 0.076058716 0.3814311 -0.18353376
000180 87 d1 8a 3e 9f 8f 88 bd 16 77 a9 3e a0 f3 b0 3e
       0.27112982 -0.066680185 0.33098668 0.3456087
000190 6d 43 bb bd f7 04 55 be 67 be 90 bc f8 22 7b 3d
       -0.0914372 -0.20802675 -0.017668916 0.061312646
0001a0 2a ef dc 3d 9c 36 0f 3e a9 58 e6 3d c2 d5 10 3e
       0.107878044 0.13985676 0.11247379 0.14144042
0001b0 cc 39 45 3b 1a 1c 94 bd ae 49 95 3e 49 83 83 3e
       0.0030094264 -0.072319224 0.29157776 0.256861
0001c0 96 25 a2 bd 3f 66 7e 3d 30 bb 5a be a0 fd 92 3e
       -0.07917325 0.06210923 -0.21360469 0.28709126
0001d0 26 1c a4 3d a5 52 a6 3e 07 50 76 3d 21 52 4f bd
       0.080131814 0.32484928 0.060134914 -0.050615434
0001e0 7d b6 51 be 63 69 2b be 95 c2 d2 3e 35 4b 14 3d
       -0.2047977 -0.1673942 0.4116408 0.036204536
0001f0 c0 32 45 3e d9 cc dd 3d ea ea c5 3e d2 6f bf 3e
       0.19257641 0.10830087 0.38655788 0.3739
000200 0f 99 0a 3a 25 2c bb 3e 7d 41 b1 3e db e0 d7 bd
       0.000528709 0.36557117 0.34620276 -0.10540935
000210 96 30 8e be fc fb e3 bc 1a e1 40 be ec 48 f0 3d
       -0.27771443 -0.027830116 -0.1883587 0.11732659
000220 92 eb 88 3e 1e 2c 5a bd ec 14 0f be 14 17 2b be
       0.26742226 -0.05326473 -0.13972825 -0.16708022
000230 25 08 b8 3d ba e7 92 be 89 65 ce 3e 10 06 34 3e
       0.089859284 -0.28692418 0.4031184 0.17580438
000240 6d be af 3e 22 d1 64 bd 70 eb 7c 3c 29 29 96 3e
       0.3432497 -0.055863507 0.015436992 0.29328278
000250 7d b5 22 be 0f b3 dd 3e 37 9a a8 3e fd 6c 7e be
       -0.15889545 0.43300673 0.32930157 -0.24846263
000260 72 7c 87 bd 4c c5 14 be 44 ce 1d be 95 d6 d4 3e
       -0.06615533 -0.14528388 -0.15410715 0.41569963
000270 12 ec 26 be 71 08 a3 3d 78 09 ba 3e b8 f0 94 be
       -0.16300991 0.079605944 0.3633535 -0.29089904
000280 cb 11 71 3e fe 11 fb bd c8 35 1d 3e 9d a0 cc 3e
       0.23541944 -0.12259291 0.15352547 0.39966288
000290 5a a5 12 be ce 6c dc 3c bf f8 a2 bd 5f 7f a6 bd
       -0.14320889 0.02690735 -0.07957601 -0.08129763
0002a0 63 f0 c6 3e 45 c9 0b bd e4 8b 4e 3e 47 43 d3 3e
       0.38855276 -0.034127492 0.20170552 0.41262266
0002b0 ce 1c 20 be bf 65 5d bd e0 59 b9 3e a8 c8 7f 3e
       -0.15635988 -0.05405211 0.36201382 0.24978888
0002c0 a5 1d 7a be 00 e7 4f 3e c5 ed 14 be 16 5a c7 3e
       -0.24425371 0.20302963 -0.14543827 0.38935918
0002d0 55 37 2e be 65 04 de 3e 9b fc 16 3e 54 ac 98 be
       -0.17013295 0.43362728 0.14744799 -0.29818976
0002e0 43 be 95 be 49 31 81 be 60 da 9d 3e 2a 4b 29 bd
       -0.2924672 -0.25232914 0.3083067 -0.041331448
0002f0 3e ff ba 3e 43 d3 d9 3e 2d be c2 3e ed 55 93 3e
       0.3652286 0.42543992 0.38035718 0.28776494
000300 c5 1e e7 bc 2f ed 38 3e 8b 93 24 3e ff ce 56 3e
       -0.028212914 0.18059228 0.16071908 0.209774
000310 a6 46 c2 bd 45 f8 b7 bd aa e7 3e 3d d8 e7 04 bc
       -0.09486131 -0.089829005 0.04660765 -0.0081119165
000320 f9 65 a5 3e 3a c0 58 3e fd c2 79 3e 2f 1e 62 3c
       0.3230436 0.21167079 0.24390788 0.013801142
000330 54 45 c6 3d 8c 4f 80 bd 1f 59 ce 3e 52 84 10 3e
       0.09681192 -0.06265172 0.4030237 0.14112976
000340 f3 8e c3 3e 3b 9a ad bd 96 8b d7 3d 5e 7d b1 3e
       0.38195 -0.08476683 0.10524671 0.3466596
000350 1b 98 22 3e cb f0 81 3e 04 da 88 3e e7 70 94 bd
       0.15878336 0.25379023 0.26728833 -0.07248097
000360 59 d5 fe 3c 72 e6 ec 3d fe 0a d3 bd 4c 67 ef 3d
       0.031107591 0.115673915 -0.10304831 0.11689624
000370 a8 ab 3f 3b 01 91 76 3d a2 83 14 3e 23 d9 14 3e
       0.0029246602 0.06019688 0.14503339 0.14535956
000380 72 25 76 3d 6c 8c 12 3e f3 83 8a 3d 4b f5 a7 3e
       0.060094304 0.14311379 0.067634486 0.3280433
000390 4f cc fa 3d bc 8d a8 3d 34 69 09 bd 60 6e cd 3d
       0.12246 0.08230159 -0.033547595 0.10030818
0003a0 ab ff 95 3e ba 4f 8c bc bf 7d b8 3e 1e fd 8a 3e
       0.29296622 -0.01712786 0.36033437 0.27146238
0003b0 1d 8e bf bd 17 78 21 be 37 ed 6a 3e 69 74 97 3d
       -0.09353278 -0.15768467 0.22942053 0.0739525
0003c0 e1 52 0a 3e 35 a6 92 3e 22 3a a5 bd c8 0c bc 3e
       0.13508178 0.2864243 -0.080677286 0.367285
0003d0 ad 11 e2 bc 8b d4 0d 3e ca cc 84 3e 4b a7 33 3e
       -0.02759632 0.1385061 0.25937492 0.17544286
0003e0 e3 22 14 3e b0 71 32 bd c5 76 81 3e c2 82 2a be
       0.14466433 -0.043565452 0.25285926 -0.16651443
0003f0 9d b8 b6 3e d6 31 f0 3d 1a c2 b2 3e 80 bd 37 3e
       0.35687724 0.117282555 0.34913713 0.17943382

sequential/dense_1/BiasAdd/ReadVariableOp:0 f4 [64]
000000 e0 bc 2a be c1 73 93 3e 09 3d 90 3e 71 46 e5 bc
       -0.16673613 0.2879925 0.28171566 -0.02798769
000010 39 ca 99 3e e7 05 8b bc 76 b5 91 bd 86 33 e0 bc
       0.30037096 -0.016970588 -0.07114689 -0.027368318
000020 46 3e 84 3e 1f ee fd bd ba ce b3 3e 80 bd 7d bd
       0.2582876 -0.123989336 0.35118657 -0.0619483
000030 03 13 24 bd fd 3e 95 3e a4 47 73 3e 06 96 89 3e
       -0.040057193 0.2914962 0.23757797 0.2687227
000040 3c 33 85 3e a3 ad c9 bc 62 b5 e7 bc 57 52 86 3e
       0.2601565 -0.02461893 -0.028284732 0.26234695
000050 64 03 b5 bb 19 90 87 3e be ff 68 3e f4 f3 84 be
       -0.005524086 0.26477125 0.22753808 -0.2596737
000060 7b 48 91 3e 6f 25 82 bc 08 c3 d3 bd 17 9f 92 3e
       0.2837561 -0.01588699 -0.10339934 0.28637
000070 ed 8c 5f bd 1e 22 13 bc b0 f8 89 3e 3a 51 01 3e
       -0.054577757 -0.008980302 0.26947546 0.12628642
000080 80 55 78 3e 02 78 84 3e d0 66 95 3e 68 78 9a 3e
       0.24251366 0.2587281 0.29180002 0.30169988
000090 b7 d0 c1 bc a2 ad 89 3e f6 be 10 be b6 44 8a bc
       -0.023659093 0.26890284 -0.14135346 -0.016878467
0000a0 b0 64 87 3e 77 f9 19 bd 50 99 7c 3e 35 b6 9f 3e
       0.26444006 -0.037591424 0.24667859 0.311937
0000b0 82 1c ea bc 6b 6c f4 bc ec f5 a5 3e 8e 08 7e 3e
       -0.028578047 -0.029836854 0.32414186 0.24807951
0000c0 9e 4d 97 3e c9 2e 76 3e 2d c5 94 3e 6b bd 6e 3e
       0.29551405 0.24041285 0.29056683 0.23314445
0000d0 7d 32 a6 bc c8 39 8e 3e c7 c6 75 3e 05 3e 45 3e
       -0.020287747 0.2777846 0.24001609 0.1926194
0000e0 17 95 99 3e ab 73 94 bd e3 23 90 3e 2a 0f d6 bc
       0.2999656 -0.072486244 0.2815238 -0.026130278
0000f0 44 bb 9a 3e 51 ab 87 3e 83 4c 89 3e 06 9f 7e 3e
       0.30220997 0.26497892 0.26816186 0.2486535

sequential/dense/MatMul/ReadVariableOp:0 f4 [6, 128]
000000 ee 73 f9 3e 13 cf 3d be 23 ae cd be 8a a2 a2 3c
       0.4872126 -0.18536024 -0.40171918 0.019852895
000010 fa 1b bd be 52 e1 ce be e6 09 d8 bc a8 2d b3 be
       -0.36935407 -0.4040628 -0.026371907 -0.3499577
000020 05 58 1e bd e0 c5 12 be 5e 6a 8b 3d df e2 93 bd
       -0.03865816 -0.14333296 0.06807397 -0.072210066
000030 72 51 ba 3c 61 12 d4 be 6f 9e 6d be 8e ce 27 3a
       0.022743914 -0.41420272 -0.23204969 0.00064013235
000040 50 df a8 be 63 3d c9 be 7b 58 1c be 76 7b 27 be
       -0.32982874 -0.39304647 -0.15268128 -0.1635569
000050 53 a0 d0 3e ea ba fe bd 1f ab c2 bc e5 96 aa be
       0.40747318 -0.12437995 -0.023763238 -0.33318248
000060 84 1b ca be 69 ba 95 be 7a ff 34 3d 61 3a 3b be
       -0.39474118 -0.29243782 0.044188954 -0.18283989
000070 17 0e 0f bd 38 30 ac be ba ae 4e be e2 58 db be
       -0.034925546 -0.33630538 -0.2018384 -0.4284125
000080 f1 38 c2 be b7 50 a4 be c0 e6 bb be e2 21 6e bd
       -0.37934068 -0.3209283 -0.36699486 -0.058137782
000090 4a 81 ca be dd 26 cf be 0e a5 ab bb f9 6f 40 bd
       -0.39551765 -0.40459338 -0.005238182 -0.046981785
0000a0 5a c1 d2 be d8 4f c2 be 58 51 a0 3e 67 1c 23 be
       -0.4116314 -0.3795154 0.3131206 -0.15928803
0000b0 1b 2c e1 be 9c 91 52 be b9 23 e4 3d 71 63 28 3e
       -0.43978962 -0.20563358 0.11139626 0.16444184
0000c0 c2 d8 d4 be 9e fc d3 bd 9a 1c eb be 70 26 cf 3d
       -0.41571623 -0.10350917 -0.4592026 0.10114753
0000d0 b8 29 74 bd 52 7e af be 5f 4b 98 be ef 9f 42 3e
       -0.0596101 -0.34276062 -0.29745004 0.19006322
0000e0 8c 5c 93 be cf bc 28 be 82 d4 8d be 4c e0 c3 be
       -0.28781545 -0.16478275 -0.27701193 -0.38257062
0000f0 6e 9b d4 be 6b d0 b6 be e7 81 11 bf 21 d0 64 bd
       -0.41524833 -0.35705885 -0.5683884 -0.05586255
000100 be 45 5f be ff a4 85 3e 4d 2f 30 3e d7 53 fb be
       -0.21803948 0.26102445 0.17205544 -0.49087402
000110 05 e5 0a bf 47 8b c3 be 61 88 97 be a1 e8 8b be
       -0.54255706 -0.38192198 -0.29596236 -0.2732592
000120 40 eb d5 be 7b ef 43 bd 95 71 f0 be d5 d2 60 3d
       -0.41781044 -0.04783581 -0.46961656 0.054888565
000130 a2 0c 2e be 33 f8 b7 be fa d1 e0 be 7b 6d 0f be
       -0.16997007 -0.35931548 -0.439102 -0.14006607
000140 28 f7 b5 be bc 65 60 3d cd 27 ac be b0 41 82 be
       -0.35540128 0.05478452 -0.33624116 -0.2544074
000150 90 e5 45 3d 49 2d 41 be b0 d1 6b be 61 cc 28 be
       0.04831463 -0.18864931 -0.23029208 -0.16484214
000160 9a ec bb 3e f7 3b ca 3e c1 1e 76 be 8c 99 94 3d
       0.3670395 0.39498875 -0.24035169 0.07255849
000170 fd a5 42 3d f9 28 bf 3b bf 2e 25 be cc 50 42 be
       0.04752158 0.0058337417 -0.16131113 -0.18976134
000180 fa 9b 9b be 56 a9 38 3e cd 7d bb be 1f 52 45 bd
       -0.30392438 0.18033347 -0.36619416 -0.04817402
000190 31 db a5 3e 24 eb e3 be 7b cd 35 3e 07 03 0a be
       0.32393792 -0.44515336 0.17754166 -0.13477717
0001a0 37 03 a6 bd ad 72 d8 bc fa 2d d7 be 73 24 ae be
       -0.08106082 -0.02642187 -0.42027265 -0.34012184
0001b0 1b 75 cf be 51 a7 43 3e e8 9b da be 4b eb 8d be
       -0.40519032 0.19106795 -0.42697072 -0.27718577
0001c0 d7 23 b9 bd 17 09 e5 be ad ca fe bd d9 b5 8e 3e
       -0.09040039 -0.44733498 -0.12441001 0.27873114
0001d0 7c 64 45 be 4e 40 6a be d7 a2 f2 be 22 6c 8b be
       -0.19276613 -0.22876093 -0.47389862 -0.27230936
0001e0 e1 a9 88 3e b7 2e a0 be b6 2f 4e 3d c5 48 8c be
       0.26692107 -0.3128564 0.05033847 -0.2739927
0001f0 da 53 93 3e 7a 9f 89 be bb fc ea be c6 61 87 be
       0.2877491 -0.26879483 -0.45895943 -0.26441783
000200 c1 14 8a bd 04 5c c3 3c 1a 5a 62 bd 86 21 75 bd
       -0.0674224 0.023847587 -0.05526171 -0.059846424
000210 39 60 86 3e 1a 9f 10 3e 10 a3 8c 3d c2 02 8c 3e
       0.26245287 0.14123192 0.06867039 0.27345854
000220 15 c7 8a 3e 36 37 8b 3b 0c c4 38 3e 94 39 f9 bd
       0.27105013 0.004248525 0.18043536 -0.12169185
000230 d3 96 4e 3e 1b 1d cc 3d ac 4c 7a 3e 28 17 67 3e
       0.20174722 0.09966489 0.2444331 0.22567427
000240 5e c7 68 3d 86 5c 94 3e 49 59 20 3e c3 50 60 3e
       0.056830756 0.2897684 0.1565906 0.21905808
000250 9c 9d dd bd 8d 0c ad 3e ae 25 74 3e 2f 81 94 3e
       -0.10821077 0.33798638 0.23842499 0.2900481
000260 33 09 19 3e 04 8d 90 3e 7a 96 7a 3d fa 7d 37 3e
       0.14944915 0.28232586 0.061178662 0.1791915
000270 42 5b cf 3d 4e d9 1b 3d fb 80 0a bd b7 c8 41 3e
       0.10124828 0.038049035 -0.03381441 0.18924223
000280 d0 6f 55 bc 5f c7 86 3e cb 47 0c 3e 8d 9d a3 3e
       -0.013027146 0.26323983 0.13699262 0.3195614
000290 fa 26 5b 3e 72 01 45 3d 42 39 67 3e c6 99 1b bd
       0.21401587 0.04809708 0.22580436 -0.037988447
0002a0 64 53 d7 3d e9 5d 86 3e 03 85 b7 3d f9 dd c1 be
       0.105139524 0.26243523 0.08960917 -0.37864664
0002b0 28 00 83 3e 50 5e d7 be 55 74 9d 3e 7e 8e 07 3f
       0.25586057 -0.42064142 0.30752817 0.529518
0002c0 45 6b a8 3e e7 37 01 3e 3d 9e 2f 3e 3c 26 61 3e
       0.3289434 0.12618981 0.17150207 0.21987242
0002d0 06 bc 85 3e 56 46 91 3d 0e c9 07 3e f3 7e a4 3d
       0.26120013 0.07093494 0.1326029 0.08032026
0002e0 3c b3 80 3e b7 4c e9 3d 05 38 61 3e 95 c4 7c bb
       0.25136745 0.11391585 0.21994026 -0.003856932
0002f0 c1 5c 99 3e 04 79 72 3e b0 12 ac 3e 1f de 64 3d
       0.29953578 0.23678976 0.33608007 0.055875894
000300 c7 f6 08 bd 49 f0 4a 3e 8a 69 3a 3e 8d f2 02 bf
       -0.03343847 0.19818224 0.18204322 -0.51151353
000310 4d a9 0a bf f4 a2 b8 3c 95 e2 55 3b e2 09 f8 3d
       -0.5416458 0.02253864 0.0032636274 0.1211126
000320 06 21 11 3e 4c 9a c6 3d 6e 2a 90 3e e8 34 4c 3d
       0.14172754 0.096973985 0.2815737 0.049855143
000330 4e b5 b0 3e 5e 1f aa 3e 87 51 ae 3e 03 4a 2f 3e
       0.34513324 0.33227056 0.34046575 0.17118077
000340 ae 52 35 3e 1f 02 c4 3e 15 fa 3b bc 65 fb 9a 3e
       0.17707321 0.38282868 -0.011473198 0.30269924
000350 d8 04 b1 bd 4d 89 21 3e 65 f2 12 3e 0c c1 4f 3e
       -0.08643502 0.15775032 0.14350279 0.20288485
000360 72 6e 10 be 27 c8 fc bd 52 65 80 3e 04 34 c2 bd
       -0.14104632 -0.123428635 0.250773 -0.094825774
000370 91 f7 cd bc 98 31 b8 3e 96 97 b1 3e 59 8e ce 3c
       -0.025142463 0.35975337 0.34685963 0.025214361
000380 08 46 37 3e 26 a8 17 3e ba 74 06 3e 04 cd 82 3d
       0.17897809 0.14810237 0.13130465 0.0638676
000390 82 9d df bd de 6b 5d 3e 59 a6 b1 3e 38 86 ad 3d
       -0.10918714 0.2162318 0.34697226 0.08472866
0003a0 5c 36 d9 bd ef 35 50 3e d2 c1 8b 3e d6 aa 2d 3e
       -0.10606071 0.20333074 0.2729631 0.169597
0003b0 45 6a 28 3e 72 aa 06 be 2f ab 3f 3e 8f c8 de 3d
       0.16446789 -0.13150957 0.18717645 0.10878097
0003c0 61 31 3a 3e 13 13 e4 be 5c 9d 88 3e 67 54 76 3e
       0.18182899 -0.44545802 0.26682556 0.24055634
0003d0 59 41 a0 3e aa 00 25 3e 4d 89 93 3a 29 04 e3 3d
       0.31299856 0.16113535 0.0011256129 0.11084778
0003e0 0c 47 ef 3d 66 79 94 3e 76 73 63 bd 4d 30 1f bd
       0.11683473 0.2899887 -0.055530034 -0.038864423
0003f0 d5 c1 ae 3d 17 73 16 bc 1a b0 a6 3d bb 12 0f 3e
       0.08533064 -0.009182713 0.081390575 0.13971989

sequential/dense/BiasAdd/ReadVariableOp:0 f4 [128]
000000 f4 f9 6c 3d 0b f9 91 3e 6d 58 b8 3e 7d 56 d8 3e
       0.05785556 0.28510317 0.36004964 0.42253485
000010 6b 01 7f 3e 03 cb 24 3e 29 ca d0 3e 52 35 c1 3e
       0.24902885 0.16093068 0.40779236 0.37735993
000020 11 4f 40 3e b3 cb ad 3e 81 a4 ca 3e f1 50 16 3f
       0.18780161 0.33944473 0.39578632 0.58717257
000030 6a 18 b6 3e 72 83 87 3e bc fb 8c 3e 46 db ca 3e
       0.355655 0.26467472 0.27535808 0.39620417
000040 8f 65 5d 3e de 2d 89 3e 54 e9 f5 3d 46 d5 a8 3e
       0.21620773 0.26792806 0.120073944 0.32975215
000050 7d aa a2 3e 04 17 a5 3e 2e 0f be 3e 18 cf 80 3e
       0.31770697 0.32244122 0.37120956 0.25158
000060 80 49 52 3e 1c 2a b0 3e ef 3f d3 3e d8 44 91 3e
       0.2053585 0.34407127 0.41259715 0.28372836
000070 f2 0e 00 3f 03 ee cc 3e c5 88 c9 3e cb 43 af 3e
       0.50022805 0.4002534 0.3936216 0.3423141
000080 12 08 ee 3e 3d 93 b3 3e 97 b3 f6 3e 84 b2 8d 3e
       0.46490532 0.3507327 0.4818389 0.2767526
000090 0f 66 7e 3e 32 b6 f1 3e 52 6d b9 3e 73 d1 d4 3e
       0.2484362 0.47209316 0.36216217 0.41566047
0000a0 5a b8 2c 3e 3d e3 9b 3e 07 65 75 3e ea 89 f6 3e
       0.168672 0.30446807 0.2396432 0.48152095
0000b0 e9 7a 99 3e 5a 42 cb 3e fe c8 a6 3e 93 58 23 be
       0.29976586 0.3969906 0.3257522 -0.15951757
0000c0 ca 71 95 3e 5c 8b b5 3e a6 11 5b 3e de 8b a7 3e
       0.29188377 0.35457885 0.21393451 0.32723898
0000d0 3d 2b bb 3e 34 ce 10 3f 78 38 29 3e ec b6 9c 3e
       0.36556426 0.5656464 0.16525447 0.30608308
0000e0 bb 06 a8 3e 9a eb b2 3e f6 15 a9 3e 4f 09 ce 3e
       0.32817635 0.34945375 0.33024567 0.40241477
0000f0 01 3f c8 3e ea 04 72 3e f9 17 d4 3e 7f 41 d5 3e
       0.39110568 0.23634687 0.4142454 0.41651532
000100 75 b9 a4 3e 1d 80 7a 3e a0 66 b0 3e a9 05 21 3e
       0.32172742 0.24462934 0.34453297 0.15724815
000110 de 02 92 3e bd d9 de 3e 7a db 97 3e b9 0e ae 3e
       0.28517812 0.43525496 0.29659635 0.33995607
000120 72 a9 aa 3e 1d 63 b4 3e d0 06 8d 3e a7 4a aa 3e
       0.33332402 0.35231867 0.2754426 0.3326008
000130 31 72 a0 3e 0e 06 bf 3e af 95 7b 3e 2b 64 9d 3e
       0.3133712 0.37309307 0.24568819 0.30740485
000140 07 e2 ef 3e 2e 9b 8b 3d cc 19 fa 3e 24 61 7c 3e
       0.46852133 0.068167076 0.48847806 0.24646431
000150 ad f0 27 3f 2d 45 c1 3e a7 ea 09 3f 87 3d a0 3e
       0.6560162 0.3774809 0.53873676 0.31296942
000160 cc 09 4e 3e a1 a6 97 3e 30 95 7f 3e 2b 72 bb 3e
       0.20120925 0.29619315 0.24959254 0.3661054
000170 fa 5c 00 3f 1e 8e a3 3e cb fb ae 3e 05 62 b6 3e
       0.5014187 0.31944364 0.34176478 0.35621658
000180 bb 17 da 3e 8e 43 ae 3d e9 f4 e1 3e d2 e0 bc 3e
       0.4259623 0.08508979 0.44132164 0.36890274
000190 e4 43 89 3e b3 f9 bc 3e d1 ba 60 3e a9 df b5 3e
       0.2680961 0.36909255 0.21946265 0.35522202
0001a0 03 c1 7a 3e 48 4d ab 3e a9 53 57 3e 02 21 9f 3e
       0.2448769 0.33457398 0.21028008 0.3107987
0001b0 12 2a 8d 3e 2c 8f b1 3e b5 53 65 3e 5d dd c2 3e
       0.2757116 0.34679544 0.22395213 0.38059512
0001c0 a3 9b d7 3e fc 0b 8c 3e de b1 75 3e 0a a4 61 3e
       0.4211093 0.27352893 0.23993632 0.22035232
0001d0 7d d7 86 3e 70 d3 87 3e 6f 0c d4 3e 6c fc de 3e
       0.2633628 0.26528502 0.41415736 0.43551958
0001e0 2d 12 16 3e 68 bd 86 3e 1c 58 e4 3e e7 04 d9 3e
       0.14655371 0.2631638 0.44598472 0.42386553
0001f0 0d 9a b2 3e 6c 9a c7 3e 56 11 26 3e 10 a6 94 3e
       0.34883156 0.38985002 0.1621755 0.29032946
